…
pe":"code","metadata":{"colab":{"base_uri":"https://localhost:8080/"},"id":"ja9ofhaMx7cw","executionInfo":{"status":"ok","timestamp":1636396428915,"user_tz":-330,"elapsed":34,"user":{"displayName":"Gunjan Chhablani","photoUrl":"https://lh3.googleusercontent.com/a/default-user=s64","userId":"14184665764469189833"}},"outputId":"32fc6e24-c795-42c4-ae55-00523f686a01"},"source":["model.eval()"],"execution_count":13,"outputs":[{"output_type":"execute_result","data":{"text/plain":["CLIPModel(\n","  (text_model): CLIPTextTransformer(\n","    (embeddings): CLIPTextEmbeddings(\n","      (token_embedding): Embedding(49408, 512)\n","      (position_embedding): Embedding(77, 512)\n","    )\n","    (encoder): CLIPEncoder(\n","      (layers): ModuleList(\n","        (0): CLIPEncoderLayer(\n","          (self_attn): CLIPAttention(\n","            (k_proj): Linear(in_features=512, out_features=512, bias=True)\n","            (v_proj): Linear(in_features=512, out_features=512, bias=True)\n","            (q_proj): Linear(in_features=512, out_features=512, bias=True)\n","            (out_proj): Linear(in_features=512, out_features=512, bias=True)\n","          )\n","          (layer_norm1): LayerNorm((512,), eps=1e-05, elementwise_affine=True)\n","          (mlp): CLIPMLP(\n","            (fc1): Linear(in_features=512, out_features=2048, bias=True)\n","            (fc2): Linear(in_features=2048, out_features=512, bias=True)\n","          )\n","          (layer_norm2): LayerNorm((512,), eps=1e-05, elementwise_affine=True)\n","        )\n","        (1): CLIPEncoderLayer(\n","          (self_attn): CLIPAttention(\n","            (k_proj): Linear(in_features=512, out_features=512, bias=True)\n","            (v_proj): Linear(in_features=512, out_features=512, bias=True)\n","            (q_proj): Linear(in_features=512, out_features=512, bias=True)\n","            (out_proj): Linear(in_features=512, out_features=512, bias=True)\n","          )\n","          (layer_norm1): LayerNorm((512,), eps=1e-05, elementwise_affine=True)\n","          (mlp): CLIPMLP(\n","            (fc1): Linear(in_features=512, out_features=2048, bias=True)\n","            (fc2): Linear(in_features=2048, out_features=512, bias=True)\n","          )\n","          (layer_norm2): LayerNorm((512,), eps=1e-05, elementwise_affine=True)\n","        )\n","        (2): CLIPEncoderLayer(\n","          (self_attn): CLIPAttention(\n","            (k_proj): Linear(in_features=512, out_features=512, bias=True)\n","            (v_proj): Linear(in_features=512, out_features=512, bias=True)\n","            (q_proj): Linear(in_features=512, out_features=512, bias=True)\n","            (out_proj): Linear(in_features=512, out_features=512, bias=True)\n","          )\n","          (layer_norm1): LayerNorm((512,), eps=1e-05, elementwise_affine=True)\n","          (mlp): CLIPMLP(\n","            (fc1): Linear(in_features=512, out_features=2048, bias=True)\n","            (fc2): Linear(in_features=2048, out_features=512, bias=True)\n","          )\n","          (layer_norm2): LayerNorm((512,), eps=1e-05, elementwise_affine=True)\n","        )\n","        (3): CLIPEncoderLayer(\n","          (self_attn): CLIPAttention(\n","            (k_proj): Linear(in_features=512, out_features=512, bias=True)\n","            (v_proj): Linear(in_features=512, out_features=512, bias=True)\n","            (q_proj): Linear(in_features=512, out_features=512, bias=True)\n","            (out_proj): Linear(in_features=512, out_features=512, bias=True)\n","          )\n","          (layer_norm1): LayerNorm((512,), eps=1e-05, elementwise_affine=True)\n","          (mlp): CLIPMLP(\n","            (fc1): Linear(in_features=512, out_features=2048, bias=True)\n","            (fc2): Linear(in_features=2048, out_features=512, bias=True)\n","          )\n","          (layer_norm2): LayerNorm((512,), eps=1e-05, elementwise_affine=True)\n","        )\n","        (4): CLIPEncoderLayer(\n","          (self_attn): CLIPAttention(\n","            (k_proj): Linear(in_features=512, out_features=512, bias=True)\n","            (v_proj): Linear(in_features=512, out_features=512, bias=True)\n","            (q_proj): Linear(in_features=512, out_features=512, bias=True)\n","            (out_proj): Linear(in_features=512, out_features=512, bias=True)\n","          )\n","          (layer_norm1): LayerNorm((512,), eps=1e-05, elementwise_affine=True)\n","          (mlp): CLIPMLP(\n","            (fc1): Linear(in_features=512, out_features=2048, bias=True)\n","            (fc2): Linear(in_features=2048, out_features=512, bias=True)\n","          )\n","          (layer_norm2): LayerNorm((512,), eps=1e-05, elementwise_affine=True)\n","        )\n","        (5): CLIPEncoderLayer(\n","          (self_attn): CLIPAttention(\n","            (k_proj): Linear(in_features=512, out_features=512, bias=True)\n","            (v_proj): Linear(in_features=512, out_features=512, bias=True)\n","            (q_proj): Linear(in_features=512, out_features=512, bias=True)\n","            (out_proj): Linear(in_features=512, out_features=512, bias=True)\n","          )\n","          (layer_norm1): LayerNorm((512,), eps=1e-05, elementwise_affine=True)\n","          (mlp): CLIPMLP(\n","            (fc1): Linear(in_features=512, out_features=2048, bias=True)\n","            (fc2): Linear(in_features=2048, out_features=512, bias=True)\n","          )\n","          (layer_norm2): LayerNorm((512,), eps=1e-05, elementwise_affine=True)\n","        )\n","        (6): CLIPEncoderLayer(\n","          (self_attn): CLIPAttention(\n","            (k_proj): Linear(in_features=512, out_features=512, bias=True)\n","            (v_proj): Linear(in_features=512, out_features=512, bias=True)\n","            (q_proj): Linear(in_features=512, out_features=512, bias=True)\n","            (out_proj): Linear(in_features=512, out_features=512, bias=True)\n","          )\n","          (layer_norm1): LayerNorm((512,), eps=1e-05, elementwise_affine=True)\n","          (mlp): CLIPMLP(\n","            (fc1): Linear(in_features=512, out_features=2048, bias=True)\n","            (fc2): Linear(in_features=2048, out_features=512, bias=True)\n","          )\n","          (layer_norm2): LayerNorm((512,), eps=1e-05, elementwise_affine=True)\n","        )\n","        (7): CLIPEncoderLayer(\n","          (self_attn): CLIPAttention(\n","            (k_proj): Linear(in_features=512, out_features=512, bias=True)\n","            (v_proj): Linear(in_features=512, out_features=512, bias=True)\n","            (q_proj): Linear(in_features=512, out_features=512, bias=True)\n","            (out_proj): Linear(in_features=512, out_features=512, bias=True)\n","          )\n","          (layer_norm1): LayerNorm((512,), eps=1e-05, elementwise_affine=True)\n","          (mlp): CLIPMLP(\n","            (fc1): Linear(in_features=512, out_features=2048, bias=True)\n","            (fc2): Linear(in_features=2048, out_features=512, bias=True)\n","          )\n","          (layer_norm2): LayerNorm((512,), eps=1e-05, elementwise_affine=True)\n","        )\n","        (8): CLIPEncoderLayer(\n","          (self_attn): CLIPAttention(\n","            (k_proj): Linear(in_features=512, out_features=512, bias=True)\n","            (v_proj): Linear(in_features=512, out_features=512, bias=True)\n","            (q_proj): Linear(in_features=512, out_features=512, bias=True)\n","            (out_proj): Linear(in_features=512, out_features=512, bias=True)\n","          )\n","          (layer_norm1): LayerNorm((512,), eps=1e-05, elementwise_affine=True)\n","          (mlp): CLIPMLP(\n","            (fc1): Linear(in_features=512, out_features=2048, bias=True)\n","            (fc2): Linear(in_features=2048, out_features=512, bias=True)\n","          )\n","          (layer_norm2): LayerNorm((512,), eps=1e-05, elementwise_affine=True)\n","        )\n","        (9): CLIPEncoderLayer(\n","          (self_attn): CLIPAttention(\n","            (k_proj): Linear(in_features=512, out_features=512, bias=True)\n","            (v_proj): Linear(in_features=512, out_features=512, bias=True)\n","            (q_proj): Linear(in_features=512, out_features=512, bias=True)\n","            (out_proj): Linear(in_features=512, out_features=512, bias=True)\n","          )\n","          (layer_norm1): LayerNorm((512,), eps=1e-05, elementwise_affine=True)\n","          (mlp): CLIPMLP(\n","            (fc1): Linear(in_features=512, out_features=2048, bias=True)\n","            (fc2): Linear(in_features=2048, out_features=512, bias=True)\n","          )\n","          (layer_norm2): LayerNorm((512,), eps=1e-05, elementwise_affine=True)\n","        )\n","        (10): CLIPEncoderLayer(\n","          (self_attn): CLIPAttention(\n","            (k_proj): Linear(in_features=512, out_features=512, bias=True)\n","            (v_proj): Linear(in_features=512, out_features=512, bias=True)\n","            (q_proj): Linear(in_features=512, out_features=512, bias=True)\n","            (out_proj): Linear(in_features=512, out_features=512, bias=True)\n","          )\n","          (layer_norm1): LayerNorm((512,), eps=1e-05, elementwise_affine=True)\n","          (mlp): CLIPMLP(\n","            (fc1): Linear(in_features=512, out_features=2048, bias=True)\n","            (fc2): Linear(in_features=2048, out_features=512, bias=True)\n","          )\n","          (layer_norm2): LayerNorm((512,), eps=1e-05, elementwise_affine=True)\n","        )\n","        (11): CLIPEncoderLayer(\n","          (self_attn): CLIPAttention(\n","            (k_proj): Linear(in_features=512, out_features=512, bias=True)\n","            (v_proj): Linear(in_features=512, out_features=512, bias=True)\n","            (q_proj): Linear(in_features=512, out_features=512, bias=True)\n","            (out_proj): Linear(in_features=512, out_features=512, bias=True)\n","          )\n","          (layer_norm1): LayerNorm((512,), eps=1e-05, elementwise_affine=True)\n","          (mlp): CLIPMLP(\n","            (fc1): Linear(in_features=512, out_features=2048, bias=True)\n","            (fc2): Linear(in_features=2048, out_features=512, bias=True)\n","          )\n","          (layer_norm2): LayerNorm((512,), eps=1e-05, elementwise_affine=True)\n","        )\n","      )\n","    )\n","    (final_layer_norm): LayerNorm((512,), eps=1e-05, elementwise_affine=True)\n","  )\n","  (vision_model): CLIPVisionTransformer(\n","    (embeddings): CLIPVisionEmbeddings(\n","      (patch_embedding): Conv2d(3, 768, kernel_size=(32, 32), stride=(32, 32), bias=False)\n","      (position_embedding): Embedding(50, 768)\n","    )\n","    (pre_layrnorm): LayerNorm((768,), eps=1e-05, elementwise_affine=True)\n","    (encoder): CLIPEncoder(\n","      (layers): ModuleList(\n","        (0): CLIPEncoderLayer(\n","          (self_attn): CLIPAttention(\n","            (k_proj): Linear(in_features=768, out_features=768, bias=True)\n","            (v_proj): Linear(in_features=768, out_features=768, bias=True)\n","            (q_proj): Linear(in_features=768, out_features=768, bias=True)\n","            (out_proj): Linear(in_features=768, out_features=768, bias=True)\n","          )\n","          (layer_norm1): LayerNorm((768,), eps=1e-05, elementwise_affine=True)\n","          (mlp): CLIPMLP(\n","            (fc1): Linear(in_features=768, out_features=3072, bias=True)\n","            (fc2): Linear(in_features=3072, out_features=768, bias=True)\n","          )\n","          (layer_norm2): LayerNorm((768,), eps=1e-05, elementwise_affine=True)\n","        )\n","        (1): CLIPEncoderLayer(\n","          (self_attn): CLIPAttention(\n","            (k_proj): Linear(in_features=768, out_features=768, bias=True)\n","            (v_proj): Linear(in_features=768, out_features=768, bias=True)\n","            (q_proj): Linear(in_features=768, out_features=768, bias=True)\n","            (out_proj): Linear(in_features=768, out_features=768, bias=True)\n","          )\n","          (layer_norm1): LayerNorm((768,), eps=1e-05, elementwise_affine=True)\n","          (mlp): CLIPMLP(\n","            (fc1): Linear(in_features=768, out_features=3072, bias=True)\n","            (fc2): Linear(in_features=3072, out_features=768, bias=True)\n","          )\n","          (layer_norm2): LayerNorm((768,), eps=1e-05, elementwise_affine=True)\n","        )\n","        (2): CLIPEncoderLayer(\n","          (self_attn): CLIPAttention(\n","            (k_proj): Linear(in_features=768, out_features=768, bias=True)\n","            (v_proj): Linear(in_features=768, out_features=768, bias=True)\n","            (q_proj): Linear(in_features=768, out_features=768, bias=True)\n","            (out_proj): Linear(in_features=768, out_features=768, bias=True)\n","          )\n","          (layer_norm1): LayerNorm((768,), eps=1e-05, elementwise_affine=True)\n","          (mlp): CLIPMLP(\n","            (fc1): Linear(in_features=768, out_features=3072, bias=True)\n","            (fc2): Linear(in_features=3072, out_features=768, bias=True)\n","          )\n","          (layer_norm2): LayerNorm((768,), eps=1e-05, elementwise_affine=True)\n","        )\n","        (3): CLIPEncoderLayer(\n","          (self_attn): CLIPAttention(\n","            (k_proj): Linear(in_features=768, out_features=768, bias=True)\n","            (v_proj): Linear(in_features=768, out_features=768, bias=True)\n","            (q_proj): Linear(in_features=768, out_features=768, bias=True)\n","            (out_proj): Linear(in_features=768, out_features=768, bias=True)\n","          )\n","          (layer_norm1): LayerNorm((768,), eps=1e-05, elementwise_affine=True)\n","          (mlp): CLIPMLP(\n","            (fc1): Linear(in_features=768, out_features=3072, bias=True)\n","            (fc2): Linear(in_features=3072, out_features=768, bias=True)\n","          )\n","          (layer_norm2): LayerNorm((768,), eps=1e-05, elementwise_affine=True)\n","        )\n","        (4): CLIPEncoderLayer(\n","          (self_attn): CLIPAttention(\n","            (k_proj): Linear(in_features=768, out_features=768, bias=True)\n","            (v_proj): Linear(in_features=768, out_features=768, bias=True)\n","            (q_proj): Linear(in_features=768, out_features=768, bias=True)\n","            (out_proj): Linear(in_features=768, out_features=768, bias=True)\n","          )\n","          (layer_norm1): LayerNorm((768,), eps=1e-05, elementwise_affine=True)\n","          (mlp): CLIPMLP(\n","            (fc1): Linear(in_features=768, out_features=3072, bias=True)\n","            (fc2): Linear(in_features=3072, out_features=768, bias=True)\n","          )\n","          (layer_norm2): LayerNorm((768,), eps=1e-05, elementwise_affine=True)\n","        )\n","        (5): CLIPEncoderLayer(\n","          (self_attn): CLIPAttention(\n","            (k_proj): Linear(in_features=768, out_features=768, bias=True)\n","            (v_proj): Linear(in_features=768, out_features=768, bias=True)\n","            (q_proj): Linear(in_features=768, out_features=768, bias=True)\n","            (out_proj): Linear(in_features=768, out_features=768, bias=True)\n","          )\n","          (layer_norm1): LayerNorm((768,), eps=1e-05, elementwise_affine=True)\n","          (mlp): CLIPMLP(\n","            (fc1): Linear(in_features=768, out_features=3072, bias=True)\n","            (fc2): Linear(in_features=3072, out_features=768, bias=True)\n","          )\n","          (layer_norm2): LayerNorm((768,), eps=1e-05, elementwise_affine=True)\n","        )\n","        (6): CLIPEncoderLayer(\n","          (self_attn): CLIPAttention(\n","            (k_proj): Linear(in_features=768, out_features=768, bias=True)\n","            (v_proj): Linear(in_features=768, out_features=768, bias=True)\n","            (q_proj): Linear(in_features=768, out_features=768, bias=True)\n","            (out_proj): Linear(in_features=768, out_features=768, bias=True)\n","          )\n","          (layer_norm1): LayerNorm((768,), eps=1e-05, elementwise_affine=True)\n","          (mlp): CLIPMLP(\n","            (fc1): Linear(in_features=768, out_features=3072, bias=True)\n","            (fc2): Linear(in_features=3072, out_features=768, bias=True)\n","          )\n","          (layer_norm2): LayerNorm((768,), eps=1e-05, elementwise_affine=True)\n","        )\n","        (7): CLIPEncoderLayer(\n","          (self_attn): CLIPAttention(\n","            (k_proj): Linear(in_features=768, out_features=768, bias=True)\n","            (v_proj): Linear(in_features=768, out_features=768, bias=True)\n","            (q_proj): Linear(in_features=768, out_features=768, bias=True)\n","            (out_proj): Linear(in_features=768, out_features=768, bias=True)\n","          )\n","          (layer_norm1): LayerNorm((768,), eps=1e-05, elementwise_affine=True)\n","          (mlp): CLIPMLP(\n","            (fc1): Linear(in_features=768, out_features=3072, bias=True)\n","            (fc2): Linear(in_features=3072, out_features=768, bias=True)\n","          )\n","          (layer_norm2): LayerNorm((768,), eps=1e-05, elementwise_affine=True)\n","        )\n","        (8): CLIPEncoderLayer(\n","          (self_attn): CLIPAttention(\n","            (k_proj): Linear(in_features=768, out_features=768, bias=True)\n","            (v_proj): Linear(in_features=768, out_features=768, bias=True)\n","            (q_proj): Linear(in_features=768, out_features=768, bias=True)\n","            (out_proj): Linear(in_features=768, out_features=768, bias=True)\n","          )\n","          (layer_norm1): LayerNorm((768,), eps=1e-05, elementwise_affine=True)\n","          (mlp): CLIPMLP(\n","            (fc1): Linear(in_features=768, out_features=3072, bias=True)\n","            (fc2): Linear(in_features=3072, out_features=768, bias=True)\n","          )\n","          (layer_norm2): LayerNorm((768,), eps=1e-05, elementwise_affine=True)\n","        )\n","        (9): CLIPEncoderLayer(\n","          (self_attn): CLIPAttention(\n","            (k_proj): Linear(in_features=768, out_features=768, bias=True)\n","            (v_proj): Linear(in_features=768, out_features=768, bias=True)\n","            (q_proj): Linear(in_features=768, out_features=768, bias=True)\n","            (out_proj): Linear(in_features=768, out_features=768, bias=True)\n","          )\n","          (layer_norm1): LayerNorm((768,), eps=1e-05, elementwise_affine=True)\n","          (mlp): CLIPMLP(\n","            (fc1): Linear(in_features=768, out_features=3072, bias=True)\n","            (fc2): Linear(in_features=3072, out_features=768, bias=True)\n","          )\n","          (layer_norm2): LayerNorm((768,), eps=1e-05, elementwise_affine=True)\n","        )\n","        (10): CLIPEncoderLayer(\n","          (self_attn): CLIPAttention(\n","            (k_proj): Linear(in_features=768, out_features=768, bias=True)\n","            (v_proj): Linear(in_features=768, out_features=768, bias=True)\n","            (q_proj): Linear(in_features=768, out_features=768, bias=True)\n","            (out_proj): Linear(in_features=768, out_features=768, bias=True)\n","          )\n","          (layer_norm1): LayerNorm((768,), eps=1e-05, elementwise_affine=True)\n","          (mlp): CLIPMLP(\n","            (fc1): Linear(in_features=768, out_features=3072, bias=True)\n","            (fc2): Linear(in_features=3072, out_features=768, bias=True)\n","          )\n","          (layer_norm2): LayerNorm((768,), eps=1e-05, elementwise_affine=True)\n","        )\n","        (11): CLIPEncoderLayer(\n","          (self_attn): CLIPAttention(\n","            (k_proj): Linear(in_features=768, out_features=768, bias=True)\n","            (v_proj): Linear(in_features=768, out_features=768, bias=True)\n","            (q_proj): Linear(in_features=768, out_features=768, bias=True)\n","            (out_proj): Linear(in_features=768, out_features=768, bias=True)\n","          )\n","          (layer_norm1): LayerNorm((768,), eps=1e-05, elementwise_affine=True)\n","          (mlp): CLIPMLP(\n","            (fc1): Linear(in_features=768, out_features=3072, bias=True)\n","            (fc2): Linear(in_features=3072, out_features=768, bias=True)\n","          )\n","          (layer_norm2): LayerNorm((768,), eps=1e-05, elementwise_affine=True)\n","        )\n","      )\n","    )\n","    (post_layernorm): LayerNorm((768,), eps=1e-05, elementwise_affine=True)\n","  )\n","  (visual_projection): Linear(in_features=768, out_features=512, bias=False)\n","  (text_projection): Linear(in_features=512, out_features=512, bias=False)\n",")"]},"metadata":{},"execution_count":13}]},{"cell_type":"code","metadata":{"colab":{"base_uri":"https://localhost:8080/"},"id":"FwQm6dF25Qdd","executionInfo":{"status":"ok","timestamp":1636396428916,"user_tz":-330,"elapsed":29,"user":{"displayName":"Gunjan Chhablani","photoUrl":"https://lh3.googleusercontent.com/a/default-user=s64","userId":"14184
…
